hw1/models/model.pth (torch, 14367 bytes, 3 tensors)

net.0.weight f4 [64, 48]
00000000: 01f0 273e bde1 b0be 02cb 453e 505e d3bd
00000010: 2f2b 8abe c75f 0dbe 524a abbc 89a9 96be
00000020: b2a2 683b 4848 2dbe 689c 00be 6edd 953e
00000030: 4390 d5bd 9758 963d 7fdd fdbd 6398 10bf
00000040: 5921 c13b e98d 34bd 5e17 9dbe ce04 003c
00000050: 875b 663e fcc0 be3e 4c15 23bf 2b1d 10bf
00000060: 0c64 d9bd 575e 6abe 0c3d 32be 8b34 5abe
00000070: fced 2dbd bb16 99bd 5674 06be a8bc a5bd
00000080: df1d e8bd e0d1 0fbf 61ed c7bd 90f3 c53d
00000090: f61a 2fbd 9bec acbb 8850 babc 6225 b4be
000000a0: dde6 9a3e f342 ba3e 54a1 46bc fe48 84be
000000b0: 78bb 8bbe a6c8 a5bc 842e 40be 2a80 9abd
000000c0: 5230 5d3f c339 223e 6ac3 5d3e 98ab 963e
000000d0: fe50 6d3e 362d 683e e7f1 723e 39a6 703e
000000e0: 2ded fe3e 8e6f 463f e4f3 e33e 8dc3 033f
000000f0: 3c67 543e d9e7 a23e 1dc4 883e d7d0 503e
00000100: 10eb 953e 244b 393d a19c 023f 98a1 c33e
00000110: 8ef9 4d3f 2cda fabd 1f7f 393f 1540 cb3e
00000120: db69 fe3e 619b f63e 0a43 cd3d 9676 163f
00000130: f058 fb3d 199b d3bd 3395 b33e 6eea 9dbc
00000140: 5a74 7c3e 7702 f03e 175a 04be 6fb8 06be
00000150: 64c7 eb3e 5994 ae3e 5226 623e 0142 673e
00000160: fc2a dcbe 6e9a ecbe 7bc6 2cbe e52a dd3e
00000170: 4d96 e93e b33d 483e 21ab 67be 1e8b a0be
00000180: 97a9 8e3e 1865 223f 59cb 15bd cb5d f43e
00000190: 7ef7 88bd 1da4 b43c 8911 f93e 0735 74bd
000001a0: be50 a53e 8a14 c23e 5513 fd3e 8fcc dc3e
000001b0: d30a be3e 4746 b43e 6e8c a63e 1f42 a43e
000001c0: c957 983e 925b 1c3f 5a6d 633e b1e4 963e
000001d0: f8bc ad3e afd4 023f 8f38 dd3e 0d24 c93e
000001e0: 6cb0 023f 49b2 823e 155e 33bb b56b a43e
000001f0: 94fc 503e 5a14 013e cf1e 65bc 8343 da3e
00000200: 22a4 b83e 6e4c b23e 16f0 3e3e df3d 973e
00000210: ade1 a43e 264f 413e f461 e23e f679 d23e
00000220: 3462 e53d 645a a03d 4b6f bd3d 5f92 c63d
00000230: b753 693e 6e21 243c e8e8 8b3e 37ce 543e
00000240: adb9 303e 5ae6 253e dab8 a2bc b34c da3e
00000250: f907 ce3d 4014 ce3e 1737 ce3e 9bf0 f33e
00000260: 38ca f43c 1b6f e83e 379b da3e 69b5 9a3e
00000270: 4ab1 1b3e 19fb a03e 503f 53bc 9f23 0a3f
00000280: cd8e 12be 5527 a73d 70bb 933e 5460 9c3e
00000290: bc70 a83e 237b 053f c1a4 3e3e 1ff2 c83e
000002a0: 6f57 073f 7664 843e 2b67 873e ef0c c83e
000002b0: 4880 af3e ef19 b53e 23c5 733e 54cd d13e
000002c0: 805f 933a ed3d f03d 119a e53e 4e57 af3e
000002d0: be07 033f 9f73 b23e e6f5 46bd 2f98 d13e
000002e0: 767b de3d f86c 6dbd c24c eb3c 6369 cabe
000002f0: 165e babe ae36 ebbe 853b 913e aba6 c83e
00000300: 3a61 0d3f 8335 833d ed30 7c3c 9799 013f
00000310: 7d09 2d3d 8d5f a3be 4cfe ff3d 1104 973e
00000320: ba8c 093f f630 153f ed18 0d3f 6914 ca3e
00000330: 2a5d 163f 597f 183f 4136 d73e b07d 0a3f
00000340: 9e53 853e 4cc8 8e3d e32c a2be ebce 0c3f
00000350: a925 603e 1e9a 0e3f ecc4 e53e d4ac 023f
00000360: 1659 e73e 2c3a d83e 38dc 283f 92c6 033f
00000370: d255 993e 7fe2 04bf bb75 043f 1737 903e
00000380: fa37 8e3e a379 0a3f 7a51 e13e 2640 393f
00000390: b8b7 c63e 9509 de3e 5b24 cd3e 6fa2 df3e
000003a0: de89 a6bd 240d 81be eb1e 8ebe c8a4 c33d
000003b0: 0279 173e d20d 373e fe92 0f3f 7106 81bd
000003c0: ddea ef3e bde3 a13e a4b8 233f f9cc f83e
000003d0: 9d67 a63c 1d33 243e 3861 3f3f 8efa e93e
000003e0: 5608 d73e a2d3 983e 384b ef3e 139d b93e
000003f0: 9ce3 993e 31bf 963e 88e6 343e e5cb f83e
0.16400148 -0.34547225 0.19315723 -0.10320723 -0.2698607 -0.13806067 -0.020909462 -0.2942622
0.0035497365 -0.16922104 -0.12559664 0.292705 -0.10427906 0.07341116 -0.12395763 -0.56482524
0.005893868 -0.04408065 -0.3068189 0.0078136455 0.22495852 0.3725661 -0.6370437 -0.56294507
-0.106147856 -0.2288755 -0.174061 -0.21309106 -0.042463288 -0.074750386 -0.13130316 -0.08092624
-0.113338225 -0.5617962 -0.09762073 0.096655965 -0.04275032 -0.005277229 -0.022743478 -0.3518477
0.3025426 0.36379203 -0.012123425 -0.2583694 -0.27291465 -0.020237278 -0.18767744 -0.075439766
0.86401856 0.15842347 0.21656576 0.2942779 0.23175427 0.22673497 0.23725091 0.23500909
0.49790326 0.7751397 0.4452201 0.5147026 0.20742506 0.3181751 0.26712123 0.20392166
0.292809 0.045237675 0.51020247 0.38209224 0.80458915 -0.12248644 0.72459596 0.39697328
0.49690136 0.4816542 0.10022552 0.587747 0.12272823 -0.10332317 0.35074767 -0.019276824
0.2465376 0.4687688 -0.12924992 -0.13156293 0.4605056 0.34097555 0.2208493 0.22583772
-0.43001544 -0.4621157 -0.1687259 0.43196788 0.45622483 0.19554786 -0.22623874 -0.31356138
0.27863762 0.63435507 -0.03657088 0.47727808 -0.066878304 0.022050912 0.4864619 -0.059620883
0.32288164 0.37906295 0.49428812 0.43124816 0.37117633 0.35209867 0.32529014 0.32081696
0.29754475 0.61077225 0.22209683 0.29471353 0.33933234 0.5110578 0.43207213 0.39285317
0.5105045 0.25526646 -0.002736931 0.32113424 0.20408851 0.1260542 -0.013984396 0.42629632
0.36062723 0.34823936 0.18646273 0.2953939 0.32203427 0.18877849 0.44215357 0.41108674
0.112003714 0.07829741 0.09249743 0.09695887 0.22785841 0.010017736 0.2732613 0.2078179
0.1725833 0.16201153 -0.019863535 0.42636642 0.100601144 0.40249825 0.40276405 0.47644505
0.029881582 0.45397267 0.42696545 0.3021653 0.15204349 0.31441572 -0.012893513 0.53960603
-0.14312287 0.08161799 0.2885394 0.30542243 0.3289851 0.52141017 0.18617536 0.39247224
0.5286779 0.25857896 0.26445898 0.39072368 0.34277558 0.35371348 0.2380567 0.40976965
0.0011243671 0.117305614 0.44844106 0.34246296 0.5118369 0.34853837 -0.04857435 0.4093642
0.10863392 -0.05796525 0.028723124 -0.3953353 -0.36399907 -0.45940155 0.28365722 0.39189658
0.5522648 0.06406691 0.015392524 0.50624985 0.042245377 -0.31908837 0.12499675 0.2949529
0.53730357 0.58277833 0.5511616 0.39468697 0.5873591 0.5956932 0.4203358 0.54098034
0.26040357 0.06971797 -0.3167487 0.5500323 0.21889366 0.55703914 0.44876802 0.51044965
0.45185155 0.42231882 0.6596103 0.5147487 0.29948288 -0.51908106 0.5174214 0.2816703
0.27777082 0.5409185 0.44007474 0.7236351 0.3881204 0.43366686 0.400668 0.43678614
-0.08131765 -0.25205338 -0.27757964 0.09552914 0.14792255 0.17876366 0.5608367 -0.06300057
0.46858874 0.31619063 0.63953614 0.48593882 0.020313079 0.16035123 0.7475772 0.4569897
0.41998547 0.29848963 0.46737075 0.3625265 0.30056465 0.29442742 0.17666066 0.4859306

net.0.bias f4 [64]
00000000: 653a 23be 64d1 e83e ef14 ed3e 1735 e83e
00000010: 9c2e 173f 352f 0d3f 287b 343f 967c 033f
00000020: b39c a43e 4d06 8b3e 6241 8d3e 765a 1d3f
00000030: 30e9 45bf a1c7 d83e e3f2 e23e bdf7 b83e
00000040: 5c23 88bf 414c bebd acca da3e 4c44 ccbe
00000050: cb54 bb3e 174d 123f ee4e 283f e408 193f
00000060: 4fe1 bf3e 4406 c63e 09f9 213f afe9 e83e
00000070: 97dd 553c 84e1 fa3e d29a 03bf 6d58 823e
00000080: b900 e53d 8104 293f 6846 7f3e 3751 ef3e
00000090: f884 25bf 5809 33be d2b0 953e b7d9 153f
000000a0: 498d ed3e 80af f43e 8a07 293f 89ce 1b3f
000000b0: fb1f 97be f397 00bf dcb4 073f 6208 f4bd
000000c0: 6b4d 22be 328b 123f 87fc fc3e ae8a a4be
000000d0: 03d7 123f d901 a3be 4dd7 c83e 8228 0a3f
000000e0: 439a f73e f1f9 043f 83c0 f53e eaf9 ef3e
000000f0: fab8 f93e 023c 053f 5b7c b8be caca 2f3f
-0.15940244 0.45472252 0.46305034 0.45353004 0.59055495 0.5515016 0.7050042 0.5136198
0.32150802 0.27153245 0.27588946 0.6146616 -0.7730894 0.42339805 0.44325933 0.3612651
-1.0635791 -0.09291888 0.4273275 -0.39895856 0.3658813 0.5714888 0.6574544 0.5977919
0.37476584 0.38676655 0.6327062 0.45490786 0.013053319 0.4900018 -0.5140811 0.2545809
0.111817785 0.660225 0.24929202 0.4674165 -0.6465602 -0.17484033 0.29236466 0.5853533
0.46396855 0.47790146 0.6602713 0.6086202 -0.29516587 -0.50231856 0.53010345 -0.119156614
-0.15849845 0.57243645 0.49411413 -0.32137054 0.5735933 -0.31837347 0.3922676 0.5396806
0.4835988 0.5194388 0.47998437 0.46870357 0.48773938 0.5204469 -0.36032376 0.68668807

net.2.weight f4 [1, 64]
00000000: 25be 1bbf 7941 0d3f 717a e23e cd9e ca3e
00000010: f5ec f73e 8257 c23e 7818 ef3e f133 e33e
00000020: cd3b c13e 7eb1 be3e 4a11 d43e e691 263f
00000030: 92ff 28bf 883c a83e f56f d33e 5232 ca3e
00000040: a9ee 54bf b007 1bbd e02c bd3e fc42 2fbf
00000050: bbb9 c63e ffd0 a53e 1311 f83e 4bfb c93e
00000060: 2794 c13e 1174 ac3e 76e9 fa3e 34a2 ea3e
00000070: dfd3 72be 8057 0b3f 1a97 89bf b0db e13e
00000080: 15fe ee3e 7926 ea3e 8a66 d13e 6127 a63e
00000090: ba4d 66bf 0613 e7be 13a1 d83e 71d1 eb3e
000000a0: c2f6 cd3e 5818 c73e 18f9 003f 5796 ed3e
000000b0: 39bd 73bf 3976 64bf f0b4 043f 94c1 70bf
000000c0: 1a21 f7be e19b e83e 6d5f a13e 140b 61bf
000000d0: e8b4 a23e d0cb 5ebf bfb4 c33e b8fb af3e
000000e0: 4c4e ab3e d189 ba3e 184f b63e e48f ba3e
000000f0: 3101 ea3e 561c f63e c928 60bf ab4f 063f
-0.6083701 0.5517803 0.4423404 0.3957428 0.4842297 0.37957388 0.46698356 0.44375566
0.37740937 0.3724479 0.4141944 0.65066373 -0.6601497 0.32858682 0.41296354 0.39491516
-0.83176666 -0.03784913 0.369483 -0.68461585 0.38813576 0.32386014 0.48450527 0.39449534
0.37808344 0.33682302 0.49006242 0.45826876 -0.23713635 0.5443039 -1.0749238 0.4411292
0.46678224 0.45732477 0.40898544 0.3245192 -0.8996235 -0.451317 0.4231039 0.4605823
0.40227324 0.3888576 0.50380087 0.46403763 -0.95210606 -0.89242893 0.5183859 -0.94045377
-0.48267442 0.45431426 0.31518117 -0.8790753 0.31778646 -0.87029743 0.38223836 0.34371734
0.33458173 0.3643327 0.3560722 0.36437905 0.45704034 0.48068494 -0.87562233 0.52465314
